models/lstm_ida1.pt (torch, 304421 bytes, 9 tensors)

lstm.weight_ih_l0 f4 [256, 92]
-0.1455189 0.10844065 0.041500274 -0.07516778 -0.03621152 0.037144877 -0.08914673 0.05655813
0.6642523 -0.04213332 -0.06322546 0.043691847 0.027737303 0.13460797 -0.2356892 0.042768035
0.042995177 -0.15137908 -0.015525104 0.047713686 0.1279501 -0.06962979 -0.10881336 -0.15794861
-0.12700996 -0.038272507 -0.08140603 -0.15958768 0.0066564414 -0.051936716 0.10461076 -0.0053070616
-0.034275826 0.14720453 0.082329564 0.01242916 -0.07427661 0.035604715 -0.19581115 0.094577186
0.021581816 0.019421477 -0.10946799 -0.0005458835 -0.06250355 -0.08367905 -0.050717145 -0.09859462
0.028109413 -2.4178735e-06 -0.016990975 0.25896987 -0.089669645 0.041796714 -0.15494572 -0.041357346
-0.10542365 -0.17226239 -0.004981003 -0.15996063 -0.09892005 -0.13436095 0.1283552 -0.14030083
-0.012611877 -0.16806942 -0.13641585 -0.07094362 0.034996036 -0.03097937 0.05554678 -0.008299954
-0.11014372 -0.11432452 -0.11219804 -0.042018227 0.04033727 -0.061785005 -0.06360547 -0.15089451
-0.19061859 0.12939477 -0.13406874 0.0047292933 0.026575394 0.14411004 0.01296232 -0.04330285
-0.078689575 0.16872522 0.22306986 -0.15794507 0.10222353 -0.055509716 -0.08602865 -0.16136308
-0.016488075 0.1527977 0.06597237 0.049796574 1.1303486 -0.050098926 -0.08890644 0.021951614
0.11193173 0.03191426 0.2228461 -0.038245358 -0.006349274 0.046083517 -0.0018663125 0.19277397
0.06450173 0.1281792 -0.10755696 -0.08061869 0.083398655 -0.15705338 0.08987662 0.13634646
0.08840649 -0.04207633 0.036278754 0.2199403 -0.09803143 -0.03373743 -0.13316493 0.036863677
-0.15137331 0.05798724 0.13029727 -0.046446458 -0.0026047467 0.07519195 0.005781042 -0.45484412
-0.06923196 0.09264829 0.050519977 0.16583966 0.16650163 0.0049110106 0.06254682 -0.02402043
0.04369872 0.051389765 0.20814644 -0.039454937 0.043444876 -0.16453688 0.08029651 0.17390047
0.11308372 -0.06996469 -0.0061544296 -0.01557677 -0.07245126 -0.14784761 0.0027206878 -0.022322685
0.1556564 -0.10303625 -0.0923367 0.19877839 0.17837864 -0.16709301 -0.01381645 -0.24755801
-0.32794333 0.06910086 0.23084159 -0.073740326 -0.24980867 0.028215325 0.076292485 0.047159337
-0.043710317 -0.17242563 -0.021061078 0.0002055529 -0.02778141 0.1354292 0.16919106 -0.061209153
-0.048893314 -0.03690794 0.1774866 -0.066483356 -0.1230652 -0.016210314 -0.08792572 0.069596834
0.72842073 0.20553197 0.123857856 0.023906587 -0.035217613 0.03811189 0.13638459 -0.16803306
-0.18881518 -0.020239444 -0.015620027 0.05612536 0.18422864 0.093248144 -0.027709065 0.1818713
-0.07172309 0.035816483 0.038835526 -0.037785593 0.10667861 -0.07436239 -0.026115641 -0.13468136
0.06210429 -0.046004426 -0.11678836 0.05892149 0.07508958 -0.0625269 -0.039249413 0.015664961
-0.13021968 -0.015804399 0.115808465 0.13826545 -0.055329554 -0.13060991 -0.122070804 0.09209825
0.2658456 0.06254561 0.01493793 0.10734097 -0.10733992 -0.020175464 0.036430024 -0.058717538
0.106060304 0.05563239 0.05901773 -0.1817741 0.11819771 -0.029908542 -0.059107896 0.039951757
0.15293783 0.06568979 -0.005053353 -0.049504 0.059031438 0.11017884 -0.0007013608 0.08204077
00000000: e802 15be 2216 de3d 31fc 293d 91f1 99bd
00000010: 8852 14bd 3a25 183d 9092 b6bd 7fa9 673d
00000020: 700c 2a3f fd93 2cbd 5a7c 81bd 39f6 323d
00000030: 5739 e33c acd6 093e 8258 71be 892d 2f3d
00000040: b61b 303d 1e03 1bbe 015d 7ebc 6d6f 433d
00000050: 5a05 033e 109a 8ebd 8ad9 debd 48bd 21be
00000060: e60e 02be a2c3 1cbd 34b8 a6bd f46a 23be
00000070: 471e da3b 98bb 54bd 2b3e d63d dce6 adbb
00000080: cf64 0cbd c9bc 163e 679c a83d ada3 4b3c
00000090: 561e 98bd 40d6 113d b882 48be afb1 c13d
000000a0: 59cc b03c ca19 9f3c c130 e0bd 9f19 0fba
000000b0: dc01 80bd ec5f abbd c8bc 4fbd faeb c9bd
000000c0: b645 e63c c042 22b6 a830 8bbc b397 843e
000000d0: b8a4 b7bd 0833 2b3d 17aa 1ebe 5266 29bd
000000e0: 5be8 d7bd 8d65 30be ae37 a3bb b8cc 23be
000000f0: 9896 cabd eb95 09be 8c6f 033e 05ab 0fbe
00000100: 0ca2 4ebc 641a 2cbe 99b0 0bbe e34a 91bd
00000110: 0158 0f3d 73c8 fdbc 0585 633d 88fc 07bc
00000120: 0893 e1bd f922 eabd 16c8 e5bd 4e1b 2cbd
00000130: b138 253d 4612 7dbd 9643 82bd 1784 1abe
00000140: 8531 43be 1080 043e 5149 09be 30f8 9a3b
00000150: a4b4 d93c 9591 133e e95f 543c 545e 31bd
00000160: 0028 a1bd 4ec6 2c3e 6d6c 643e 5abc 21be
00000170: 925a d13d 285e 63bd ca2f b0bd 5d3c 25be
00000180: 0012 87bc 0077 1c3e 861c 873d 7ef7 4b3d
00000190: 43af 903f 8834 4dbd 9414 b6bd dfd3 b33c
000001a0: 763c e53d 87b8 023d c531 643e 2aa7 1cbd
000001b0: 920d d0bb 12c2 3c3d 0e9f f4ba 8a66 453e
000001c0: 7c19 843d 6941 033e d346 dcbd 691b a5bd
000001d0: eacc aa3d 9ad2 20be 3c11 b83d 689e 0b3e
000001e0: 760e b53d 3b58 2cbd 0899 143d 0838 613e
000001f0: b4c4 c8bd 4230 0abd 635c 08be 5efe 163d
00000200: 9b01 1bbe 0784 6d3d a66c 053e a43e 3ebd
00000210: 66b4 2abb 3dfe 993d e56e bd3b 54e1 e8be
00000220: 7cc9 8dbd 63be bd3d 09ee 4e3d dfd1 293e
00000230: 677f 2a3e 8bec a03b 8c18 803d 7ec6 c4bc
00000240: 6efd 323d 137e 523d 5724 553e 809b 21bd
00000250: 41f3 313d 5b7c 28be 7f72 a43d f712 323e
00000260: 7098 e73d a649 8fbd 19ab c9bb b535 7fbc
00000270: 5461 94bd 5d65 17be 914d 323b 10de b6bc
00000280: 6464 1f3e ab04 d3bd 061b bdbd 908c 4b3e
00000290: e4a8 363e 6e1a 2bbe 645e 62bc d97f 7dbe
000002a0: 30e8 a7be c084 8d3d bd61 6c3e 2b05 97bd
000002b0: d8cd 7fbe d323 e73c 3c3f 9c3d 262a 413d
000002c0: 9709 33bd 5890 30be 4888 acbc b089 5739
000002d0: d795 e3bc f4ad 0a3e 6c40 2d3e 73b6 7abd
000002e0: 5b44 48bd c82c 17bd 0cbf 353e 6d28 88bd
000002f0: 9c09 fcbd 7ecb 84bc 6612 b4bd c988 8e3d
00000300: c879 3a3f f976 523e 30a9 fd3d bfd7 c33c
00000310: 5840 10bd 371b 1c3d 67a8 0b3e dc10 2cbe
00000320: c458 41be 31cd a5bc 24eb 7fbc b5e3 653d
00000330: 6fa6 3c3e e2f8 be3d 1ffe e2bc 783c 3a3e
00000340: 8ee3 92bd 4eb4 123d 0012 1f3d 11c5 1abd
00000350: 517a da3d 4f4b 98bd 78f0 d5bc e9e9 09be
00000360: 1161 7e3d 236f 3cbd bc2e efbd a957 713d
00000370: 91c8 993d 1a0e 80bd fec3 20bd ce53 803c
00000380: 4f58 05be 3a78 81bc fd2c ed3d 7595 0d3e
00000390: 3ea1 62bd 9bbe 05be 4200 fabd 029e bc3d
000003a0: ea1c 883e ea17 803d 38be 743c 95d5 db3d
000003b0: 08d5 dbbd 0447 a5bc a637 153d cd81 70bd
000003c0: 2536 d93d cade 633d 93bc 713d fd22 3abe
000003d0: a411 f23d c202 f5bc 1f1b 72bd 74a4 233d
000003e0: bc9b 1c3e 5e88 863d 9996 a5bb b5c4 4abd
000003f0: f3ca 713d 72a5 e13d 87db 37ba fe04 a83d

lstm.weight_hh_l0 f4 [256, 64]
0.05251595 -0.05167437 0.05376767 -0.17023967 0.017275387 -0.029219968 -0.24322306 -0.0016491282
-0.07896245 0.16443017 0.17395344 -0.021304727 -0.28218943 0.17636953 0.18727566 0.15511113
0.18380003 -0.22154956 0.044283446 0.0006739534 -0.008931566 -0.12836263 0.19645956 0.23358472
0.117651 -0.056085747 -0.22044477 -0.11254851 0.06671441 0.061198212 0.061041683 -0.033405047
0.12322651 -0.046993904 -0.07447143 -0.2861286 -0.004612484 0.17968477 0.013135666 0.21547347
0.08399464 -0.18442456 -0.0775272 0.13218346 -0.1840305 0.043761723 0.09208622 0.119266905
0.177216 0.10101903 0.19202247 0.101647384 -0.02279446 -0.066710055 0.018437013 -0.14258847
-0.08297723 -0.03932302 0.0064923144 -0.03341753 0.13019633 0.30007198 0.25980568 0.09954959
-0.17501241 0.122046985 0.07586322 -0.07723759 -0.0681176 -0.098706625 0.0015933709 -0.024970083
-0.008242282 -0.002660166 -0.025973197 -0.099416904 0.15406498 0.0120179765 -0.023210213 -0.061774418
0.03502063 0.092307396 0.09563949 0.02864987 -0.16821833 -0.023688912 -0.06820444 -0.05333752
0.005022918 0.048815556 -0.07869089 0.029556667 0.07514341 0.09286623 0.039302535 -0.018534828
0.0010497351 -0.0076926094 0.13756582 0.04242161 -0.0751211 0.013933627 -0.29277802 0.30679035
0.13310969 0.00391652 -0.0775035 -0.12312816 0.29088682 0.0023133296 0.121568136 0.059824333
-0.09459881 -0.020503681 -0.05412438 -0.053021315 0.33212757 0.15956776 -0.1695546 0.05335243
-0.0805372 -0.023032634 0.09646834 -0.1558552 0.01138426 0.10030811 -0.13486467 -0.041546088
0.07636409 -0.070981115 0.12469712 0.058695626 0.042012017 0.012820159 0.07860088 0.090887524
0.08849854 0.29970095 0.07871972 -0.040768847 -0.11781395 -0.1417811 0.12682158 0.04772608
-0.17223237 0.02544392 -0.09025108 -0.17170304 0.036339507 -0.13427208 0.008005864 0.1161762
0.024636965 -0.096335314 0.073194794 -0.08233753 -0.11241787 -0.08488799 0.1781904 0.029000975
0.056792352 -0.15680619 -0.033625353 -0.10271718 0.07123755 0.1037449 -0.042990424 0.17453073
-0.13676909 0.047544092 0.055191528 -0.008225944 -0.07296469 0.08160306 -0.24720535 -0.005500581
-0.0494376 -0.18478692 0.055497985 -0.105834275 0.099497795 -0.0974791 0.0020317698 0.056217473
-0.2848422 0.11582838 0.059533395 -0.26171827 0.1265217 0.3207642 0.107399754 -0.30111507
-0.13945672 -0.23041072 -0.18554951 -0.016896024 0.030423352 -0.041907307 -0.13139823 0.0879278
-0.005073122 0.19874136 0.1803078 -0.009914309 0.10555615 -0.14736052 -0.0837297 0.007628275
-0.019227495 0.18502495 -0.105765216 0.16327062 0.21623014 -0.22471303 -0.2550422 -0.033368837
-0.10678645 -0.101090975 -0.03755934 0.08054038 0.0066672093 0.014659419 0.085092515 -0.06949838
0.19560282 -0.19174655 0.101567134 0.0044446965 -0.26936162 -0.020431869 -0.0056355176 0.09376546
0.02148402 0.048922796 -0.06996611 0.047606077 -0.11202518 -0.047352407 -0.2578228 0.120678596
0.1508323 0.00039636035 0.0058790045 0.09027874 -0.023062069 -0.15374394 -0.09673337 -0.04316811
-0.054915942 0.0010445552 0.14874068 0.004484847 -0.012483229 0.20945458 0.09193456 -0.07065562
00000000: f71a 573d 81a8 53bd 7d3b 5c3d 4f53 2ebe
00000010: 1d85 8d3c b75e efbc 770f 79be 8f27 d8ba
00000020: 11b7 a1bd 6260 283e da20 323e 4087 aebc
00000030: 227b 90be 379a 343e 31c5 3f3e 74d5 1e3e
00000040: 1336 3c3e e3dd 62be 8f62 353d 3fac 303a
00000050: b455 12bc 7e71 03be b22c 493e d530 6f3e
00000060: 02f3 f03d 2bba 65bd 46bc 61be d57f e6bd
00000070: 91a1 883d faaa 7a3d d806 7a3d bbd3 08bd
00000080: 2e5e fc3d ae7c 40bd 7a84 98bd 737f 92be
00000090: 5224 97bb 49ff 373e fa36 573c 14a5 5c3e
000000a0: 6205 ac3d cbd9 3cbe 95c6 9ebd 1a5b 073e
000000b0: 7e72 3cbe 7e3f 333d b397 bc3d 3542 f43d
000000c0: 1c78 353e 11e3 ce3d 8aa1 443e 812c d03d
000000d0: 73bb babc 489f 88bd 3809 973c b602 12be
000000e0: f7ef a9bd 2d11 21bd 7bbd d43b d2e0 08bd
000000f0: 3052 053e 09a3 993e 4005 853e a8e0 cb3d
00000100: 7436 33be c5f3 f93d 2d5e 9b3d be2e 9ebd
00000110: 3e81 8bbd b326 cabd a8d8 d03a 0f8e ccbc
00000120: a30a 07bc 2e56 2ebb bec5 d4bc 179b cbbd
00000130: 36c3 1d3e 0ce7 443c 5823 bebc 2c07 7dbd
00000140: cb71 0f3d a90b bd3d a3de c33d 22b3 ea3c
00000150: 6d41 2cbe 400f c2bc c5ae 8bbd 7278 5abd
00000160: 4a97 a43b d2f2 473d b028 a1bd d320 f23c
00000170: cae4 993d a630 be3d b2fb 203d 5ad6 97bc
00000180: 4497 893a 4912 fcbb 0ede 0c3e 48c2 2d3d
00000190: 17d9 99bd de49 643c 00e7 95be a013 9d3e
000001a0: e84d 083e 2756 803b 28ba 9ebd 9e2a fcbd
000001b0: 1eef 943e 3b9b 173b b7f8 f83d 5c0a 753d
000001c0: 05bd c1bd 56f7 a7bc 87b1 5dbd e12c 59bd
000001d0: a00c aa3e bb65 233e b99f 2dbe 1488 5a3d
000001e0: b0f0 a4bd efae bcbc 3191 c53d 8198 1fbe
000001f0: 0c85 3a3c 576e cd3d f719 0abe 3b2c 2abd
00000200: c764 9c3d 8c5e 91bd 3461 ff3d d36a 703d
00000210: cb14 2c3d a50b 523c 80f9 a03d 3d23 ba3d
00000220: b93e b53d 6772 993e ce37 a13d 3cfd 26bd
00000230: 7148 f1bd 112f 11be 84dd 013e 6c7c 433d
00000240: af5d 30be c56f d03c 8fd5 b8bd ecd2 2fbe
00000250: bcd8 143d 9f7e 09be 072b 033c caed ed3d
00000260: 76d3 c93c 734b c5bd 27e7 953d 94a0 a8bd
00000270: 573b e6bd c1d9 adbd 8b77 363e 7493 ed3c
00000280: 199f 683d cd91 20be bdba 09bd 635d d2bd
00000290: fee4 913d 3578 d43d ba16 30bd 2fb8 323e
000002a0: 320d 0cbe 98bd 423d 8310 623d 1cc6 06bc
000002b0: 836e 95bd 811f a73d 6623 7dbe 383e b4bb
000002c0: 157f 4abd c838 3dbe db51 633d a4bf d8bd
000002d0: 80c5 cb3d 1fa3 c7bd 7127 053b 4b44 663d
000002e0: d6d6 91be 6e37 ed3d 4ad9 733d f0ff 85be
000002f0: e88e 013e 353b a43e 67f4 db3d c12b 9abe
00000300: becd 0ebe caf0 6bbe b100 3ebe 8869 8abc
00000310: 653a f93c ffa6 2bbd 428d 06be 7e13 b43d
00000320: 6f3c a6bb db82 4b3e 9ca2 383e a06f 22bc
00000330: d32d d83d ade5 16be 7a7a abbd 9cf6 f93b
00000340: fb82 9dbc 2e77 3d3e 6f9b d8bd 6a30 273e
00000350: 6f6b 5d3e 2c1b 66be e494 82be c3ad 08bd
00000360: dbb2 dabd c908 cfbd d3d7 19bd 5bf2 a43d
00000370: 9b78 da3b 0f2e 703c fc44 ae3d 2b55 8ebd
00000380: 1b4c 483e 3559 44be 6e02 d03d d1a4 913b
00000390: c4e9 89be bc60 a7bc 26aa b8bb 1b08 c03d
000003a0: 41ff af3c 4563 483d 644a 8fbd 97fe 423d
000003b0: 756d e5bd 99f4 41bd 5a01 84be 5726 f73d
000003c0: c873 1a3e 96ce cf39 aaa4 c03b 0fe4 b83d
000003d0: aaec bcbc 0d6f 1dbe 251c c6bd 0bd1 30bd
000003e0: 8aef 60bd 75e9 883a 7a4f 183e a0f5 923b
000003f0: 7586 4cbc 437b 563e 3048 bc3d e5b3 90bd

lstm.bias_ih_l0 f4 [256]
0.00045090297 0.08193647 -0.11799243 -0.024060022 0.02415862 -0.00017091335 0.024747299 -0.121087596
0.09085958 -0.03124102 -0.040580127 0.05808327 -0.12271287 0.17017202 0.090267934 -0.058311503
0.009786188 -0.057780303 0.1270557 -0.11920703 -0.14659643 -0.017708812 0.092267066 -0.017262131
0.023010952 0.15783946 -0.05050515 0.062152762 0.030624906 0.009349197 0.01649195 -0.045008358
0.014481239 -0.098543786 -0.1202653 0.022086497 0.033979606 0.015839387 -0.0090674125 -0.14747442
-0.004958471 0.04586212 -0.018669046 0.08999543 0.08602769 0.1958681 -0.049346898 -0.10772688
0.08380276 0.2192493 -0.07238914 0.18929489 0.05343389 0.078077875 0.16357523 -0.07432959
0.112714775 0.119832814 0.11978668 0.13959761 0.21570224 -0.13724098 -0.053138033 0.019924052
0.023633158 0.016801685 -0.27700666 -0.0077885888 0.06924183 -0.045413416 0.022289973 0.08373803
-0.1854102 0.09221634 -0.0030275946 0.0059607485 0.1409723 0.15858147 0.1311268 0.055499766
-0.0419762 0.0006823 0.07284243 0.13359137 0.03973142 -0.048855934 -0.32966122 0.038546026
0.009996762 0.12808847 0.04621046 0.041199222 0.102066554 0.14968686 -0.080485806 -0.14963846
-0.06474993 -0.039456766 0.020174537 -0.09117992 0.14628741 0.15566082 0.080245 -0.047578193
0.06413922 -0.09263755 -0.013550257 0.076760225 -0.06582521 -0.11520478 0.037681106 -0.21649873
0.018583246 0.14264193 0.0032736585 0.21492316 0.018635845 0.081279114 -0.04461884 0.051481426
0.031045241 0.003924814 0.15976462 -0.22074535 0.08766364 0.07038326 -0.14862911 0.008339635
-0.25410816 -0.012952769 -0.10343142 -0.19224453 -0.022338234 -0.071210995 -0.23854586 -0.26972976
0.015308973 0.19887844 0.11334506 0.03317408 -0.08490961 0.19420306 0.14545274 0.10153659
0.19613752 0.010953984 0.16450743 -0.17782477 0.017146012 -0.022606991 -0.024551488 0.12374901
0.119989045 -0.26061025 -0.21942116 0.15346614 0.0042647035 -0.0994352 0.16468664 -0.1471331
0.17141758 -0.31226218 -0.0911028 -0.23891719 -0.09669214 0.10359092 0.06608263 -0.02697645
0.22879912 -0.2428603 -0.20559968 0.09803894 -0.15082738 0.1784477 0.023828521 0.24667425
0.08806453 0.15180002 0.2047423 0.25090677 0.087353826 0.093347244 0.109400846 -0.18934083
-0.05418631 0.1563251 0.009428621 -0.031534716 -0.030155081 0.12844907 0.14584164 -0.05256824
-0.09005565 -0.14351548 -0.04424993 -0.026124405 -0.17795943 -0.06272287 -0.021986356 -0.1615682
0.2027393 -0.008635771 0.10853264 -0.14188048 -0.13764757 0.08127757 -0.117420316 -0.123929076
-0.11273525 0.015708884 0.08029086 -0.10418924 0.09728485 -0.031509183 0.10968392 -0.13609502
-0.039059546 0.20702145 -0.034283023 -0.12012385 0.095712915 0.0949834 -0.002529769 0.033325747
-0.07584844 0.11187047 0.0768961 -0.020784535 -0.0037236654 0.13076547 0.052622832 -0.058065634
-0.014867308 -0.09214774 -0.11000858 0.0036799603 -0.2249801 0.28785598 0.16959406 -0.14776349
0.077533014 0.15083583 0.16990274 -0.069853656 0.09173886 0.034375545 0.09258603 -0.13259134
0.15573126 -0.090865515 -0.16082624 0.11052498 -0.08804269 -0.04268153 -0.062682174 -0.11277857
00000000: 2c67 ec39 4fce a73d 04a6 f1bd 8619 c5bc
00000010: 4ce8 c53c 3437 33b9 d9ba ca3c c6fc f7bd
00000020: 9614 ba3d 2bed ffbc 5937 26bd b9e8 6d3d
00000030: e350 fbbd 9341 2e3e 65de b83d 0bd8 6ebd
00000040: 3f56 203c 0aab 6cbd e41a 023e d122 f4bd
00000050: 601d 16be 1212 91bc 84f6 bc3d 5069 8dbc
00000060: 7781 bc3c aba0 213e 7dde 4ebd e593 7e3d
00000070: 15e1 fa3c 602d 193c 201a 873c af5a 38bd
00000080: b842 6d3c 53d1 c9bd a74d f6bd beee b43c
00000090: 332e 0b3d 9ac1 813c 7c8f 14bc 8903 17be
000000a0: ab7a a2bb ebd9 3b3d d4ef 98bc 864f b83d
000000b0: 492f b03d a691 483e f91f 4abd e99f dcbd
000000c0: c8a0 ab3d e382 603e c240 94bd 85d6 413e
000000d0: 7fdd 5a3d 4be7 9f3d 4480 273e 1d3a 98bd
000000e0: 01d7 e63d e86a f53d b852 f53d adf2 0e3e
000000f0: 0ce1 5c3e e688 0cbe 44a7 59bd c437 a33c
00000100: 539a c13c b0a3 893c d1d3 8dbe 6b37 ffbb
00000110: a9ce 8d3d 6b03 3abd 7699 b63c d87e ab3d
00000120: 2cdc 3dbe ecdb bc3d 9c6a 46bb 6252 c33b
00000130: 0b5b 103e 2e63 223e 1b46 063e b953 633d
00000140: 3cef 2bbd 61dc 323a 692e 953d 2dcc 083e
00000150: 6abd 223d 291d 48bd 5bc9 a8be 70e2 1d3d
00000160: 75c9 233c a029 033e 2e47 3d3d 84c0 283d
00000170: 4508 d13d 8347 193e bed5 a4bd d33a 19be
00000180: 9c9b 84bd 6b9d 21bd 1245 a53c 8abc babd
00000190: 5ecc 153e 8d65 1f3e 7e57 a43d 5ae1 42bd
000001a0: 6c5b 833d c1b8 bdbd e601 5ebc 7734 9d3d
000001b0: 5ecf 86bd 7cf0 ebbd 8157 1a3d d8b1 5dbe
000001c0: e43b 983c ba10 123e e08a 563b d114 5c3e
000001d0: 33aa 983c aa75 a63d 3fc2 36bd 30de 523d
000001e0: 9752 fe3c ba9b 803b 5699 233e 120b 62be
000001f0: ff88 b33d 1925 903d 3b32 18be f7a2 083c
00000200: 771a 82be da37 54bc dad3 d3bd c0db 44be
00000210: acfe b6bc 12d7 91bd 5e45 74be 051a 8abe
00000220: 7dd2 7a3c caa6 4b3e 7421 e83d 8be1 073d
00000230: 17e5 adbd 2bdd 463e 90f1 143e 6af2 cf3d
00000240: 46d8 483e 5778 333c a374 283e b217 36be
00000250: cb75 8c3c 4c32 b9bc 3420 c9bc 1f70 fd3d
00000260: d1bc f53d b56e 85be f1af 60be 3a26 1d3e
00000270: edbe 8b3b afa4 cbbd 9da3 283e 0faa 16be
00000280: 1788 2f3e d4e0 9fbe 1b94 babd b5a6 74be
00000290: 8706 c6bd 7a27 d43d 5456 873d b7fd dcbc
000002a0: 514a 6a3e 5fb0 78be b988 52be a4c8 c83d
000002b0: 7e72 1abe feba 363e 0834 c33c 2d98 7c3e
000002c0: 2d5b b43d 7771 1b3e f7a7 513e da76 803e
000002d0: 90e6 b23d d72c bf3d 8d0d e03d 90e2 41be
000002e0: 77f2 5dbd b013 203e 817a 1a3c 8c2a 01bd
000002f0: ca07 f7bc 2788 033e 8357 153e cb51 57bd
00000300: 196f b8bd b9f5 12be 6a3f 35bd d902 d6bc
00000310: ff3a 36be d974 80bd bb1c b4bc 2272 25be
00000320: e49a 4f3e 0d7d 0dbc 5c46 de3d 1e49 11be
00000330: 7cf3 0cbe db74 a63d 107a f0bd 87ce fdbd
00000340: bde1 e6bd ebaf 803c 896f a43d 2b61 d5bd
00000350: 483d c73d c60f 01bd f7a1 e03d 7e5c 0bbe
00000360: e7fc 1fbd 6efd 533e 5b6c 0cbd 7e03 f6bd
00000370: 2205 c43d a886 c23d 7bca 25bb 9480 083d
00000380: 6d56 9bbd 581c e53d b47b 9d3d 5444 aabc
00000390: bd08 74bb 62e7 053e 0a8b 573d 3bd6 6dbd
000003a0: 0296 73bc f4b7 bcbd 2e4c e1bd 7d2b 713b
000003b0: 2f61 66be dc61 933e 11aa 2d3e 504f 17be
000003c0: a1c9 9e3d b574 1a3e fcfa 2d3e 6f0f 8fbd
000003d0: 95e1 bb3d 5fcd 0c3d bf9d bd3d 06c6 07be
000003e0: 0478 1f3e b317 babd a2af 24be ec5a e23d
000003f0: ba4f b4bd d4d2 2ebd 835f 80bd 73f8 e6bd

lstm.bias_hh_l0 f4 [256]
0.086073674 0.050419863 0.052397754 -0.11924718 0.049112767 0.03544126 -0.054726634 -0.121986814
0.11463562 0.02824204 -0.03295148 -0.1286762 0.060799327 0.031861413 -0.08707064 -0.12821493
0.048192944 0.06880137 0.0033033055 -0.087956294 -0.029053887 0.13609982 0.26215872 -0.048636835
-0.04069773 0.19497862 0.06097767 -0.16487263 0.11677447 0.042073127 -0.09814058 0.04502117
-0.05544045 0.0039674626 0.058865145 0.059422337 0.033292323 0.13207823 -0.04067017 -0.19435509
0.024878915 -0.063428774 -0.022680728 0.06503327 -0.03908055 0.08306597 0.024519715 -0.0363121
0.07678302 -0.0044844216 -0.085925475 0.11892589 -0.007297025 -0.059091568 0.265513 -0.12797149
0.03732765 0.12342313 0.117879376 0.25720283 0.16689242 -0.017709414 0.042225 -0.13369209
0.047684275 0.04341768 -0.15019612 0.017898023 0.16270551 0.13128577 0.18497454 0.018563902
-0.3240586 -0.013848929 0.02811304 0.08070903 -0.04692092 0.034636836 0.21622731 0.05135616
-0.08405353 0.08104989 0.1951839 0.17626253 -0.03364972 -0.15822041 -0.31238735 0.06839039
0.10247553 0.058714084 0.07539627 -0.10713761 -0.076154776 0.07910704 -0.10085436 0.02641808
0.033045832 -0.20109876 -0.068311974 -0.10686852 0.005753427 0.02305429 0.054181624 -0.08726699
-0.013774349 0.101538315 0.06944886 -0.027724553 -0.120384015 -0.21741076 -0.13575977 -0.020937944
-0.052864198 0.09575422 -0.102750875 0.18223114 0.18702959 0.15662742 0.0013907626 0.11294511
0.037579868 0.15716119 0.19245446 -0.10055176 0.116983384 0.027809298 -0.13205403 -0.15903136
-0.14177233 -0.023168657 -0.14636508 -0.04453306 -0.1755391 -0.13879864 -0.2973526 -0.06904601
0.022160228 0.075396344 0.13270944 0.0091788815 -0.13486776 0.01605818 0.08347357 0.1770917
0.22172555 -0.08206398 0.12397356 -0.24196993 -0.05690779 -0.0971348 -0.08859703 0.21222404
0.026139673 -0.14373527 -0.24742575 0.043718934 0.14345703 -0.07900312 0.12961377 -0.088622734
0.06813991 -0.31355548 0.022017036 -0.20482679 0.025567068 0.24806193 0.062094465 0.053103294
0.3040884 -0.19029447 -0.21872756 0.040729646 0.02691615 -0.034153316 -0.038013265 0.22051589
0.106156886 0.08210076 0.2165836 0.27843234 0.080376774 -0.10808397 0.0936824 -0.18402147
-0.09621845 0.01969151 -0.039716426 -0.044574257 -0.036161076 0.22678569 0.14732744 -0.07907897
-0.2554549 -0.19520353 -0.19020024 0.061880257 -0.119728945 -0.100341626 -0.18097368 -0.0822742
0.1939995 -0.0050260588 0.08261023 0.090288706 -0.043767557 0.08107698 -0.0241834 -0.2260583
-0.24591552 0.067742154 0.15453614 -0.100681774 -0.061181173 -0.074328646 0.12932532 -0.13782656
-0.06765721 0.057236526 -0.22846238 0.059407733 0.08890636 0.12024534 -0.09873213 -0.06460611
0.036634684 0.11602728 0.012776321 -0.06419452 0.03298045 0.03769644 0.10386754 0.06420238
-0.08932828 -0.097336285 -0.17714287 -0.17769718 -0.19060889 0.20949666 -0.0017040536 -0.11874674
0.22661251 0.1344448 0.14780645 -0.25553098 0.045049172 0.028743776 0.1678423 -0.0825539
0.017511746 -0.14524044 -0.12675028 -0.0059787836 -0.021475144 0.06695961 -0.08246401 -0.21220148
00000000: 6547 b03d 0f85 4e3d 079f 563d de37 f4bd
00000010: 782a 493d db2a 113d 0929 60bd 39d4 f9bd
00000020: 14c6 ea3d da5b e73c 22f8 06bd b2c3 03be
00000030: b708 793d 1d81 023d 1752 b2bd c64a 03be
00000040: f765 453d bce7 8c3d 457c 583b 6e22 b4bd
00000050: 6b02 eebc c05d 0b3e ab39 863e 6b37 47bd
00000060: aab2 26bd 7aa8 473e b9c3 793d 5fd4 28be
00000070: 7427 ef3d df54 2c3d eefd c8bd 1e68 383d
00000080: 8615 63bd 7d01 823b 941c 713d d664 733d
00000090: 885d 083d 843f 073e c495 26bd 0505 47be
000000a0: dece cb3c f2e6 81bd efcc b9bc 2a30 853d
000000b0: ed12 20bd 7e1e aa3d 92dd c83c ffbb 14bd
000000c0: 6a40 9d3d 0ef2 92bb b2f9 afbd 6b8f f33d
000000d0: e21b efbb 000a 72bd 52f1 873e f50a 03be
000000e0: e1e4 183d 44c5 fc3d be6a f13d 17b0 833e
000000f0: d9e5 2a3e 5513 91bc 1ff4 2c3d 94e6 08be
00000100: 9650 433d bdd6 313d 03cd 19be e09e 923c
00000110: 469c 263e c76f 063e f769 3d3e 5313 983c
00000120: 02eb a5be 9ee6 62bc 514d e63c c74a a53d
00000130: 2730 40bd 5bdf 0d3d b16a 5d3e d65a 523d
00000140: 4224 acbd 7cfd a53d 4ade 473e 2a7e 343e
00000150: 4ad4 09bd 8804 22be 3cf1 9fbe 4310 8c3d
00000160: b1de d13d 2e7e 703d 5c69 9a3d f76a dbbd
00000170: 09f7 9bbd df02 a23d bb8c cebd bb6a d83c
00000180: 115b 073d d5ec 4dbe 26e7 8bbd e2dd dabd
00000190: 3e87 bc3b 5adc bc3c 8ded 5d3d 09b9 b2bd
000001a0: cfad 61bc 52f3 cf3d 343b 8e3d 9a1e e3bc
000001b0: e58b f6bd eda0 5ebe 9c04 0bbe 0d86 abbc
000001c0: 2188 58bd ca1a c43d 0d6f d2bd cd9a 3a3e
000001d0: af84 3f3e f062 203e 404a b63a c44f e73d
000001e0: 59ed 193d ddee 203e c812 453e 15ee cdbd
000001f0: fc94 ef3d 53d0 e33c 2c39 07be 1ed9 22be
00000200: c42c 11be 32cc bdbc bae0 15be 4c68 36bd
00000210: 86c0 33be 3b21 0ebe 9a3e 98be ff67 8dbd
00000220: 5e89 b53c 6669 9a3d fce4 073e 0563 163c
00000230: c61a 0abe 728c 833c 31f4 aa3d 8757 353e
00000240: 060c 633e 2911 a8bd dae5 fd3d f7c6 77be
00000250: 2518 69bd 9cee c6bd 5c72 b5bd 4251 593e
00000260: de22 d63c 572f 13be 2d5d 7dbe a012 333d
00000270: 66e6 123e 63cc a1bd 79b9 043e d67f b5bd
00000280: f08c 8b3d 588a a0be 125d b43c 1dbe 51be
00000290: 0772 d13c f203 7e3e c456 7e3d d782 593d
000002a0: 7ab1 9b3e 8edc 42be 1efa 5fbe 21d4 263d
000002b0: 427f dc3c 59e4 0bbd ccb3 1bbd ebce 613e
000002c0: c868 d93d 7124 a83d 17c8 5d3e af8e 8e3e
000002d0: 949c a43d 215b ddbd 8fdc bf3d 2070 3cbe
000002e0: 2e0e c5bd 1750 a13c b1ad 22bd 7f93 36bd
000002f0: a31d 14bd 823a 683e 01dd 163e 28f4 a1bd
00000300: fcca 82be 6fe3 47be dac3 42be 2776 7d3d
00000310: 7334 f5bd e97f cdbd 2a51 39be 607f a8bd
00000320: cea7 463e a3b1 a4bb 8d2f a93d 49e9 b83d
00000330: 9c45 33bd b00b a63d 441c c6bc d47b 67be
00000340: 47d1 7bbe 66bc 8a3d b93e 1e3e 3f32 cebd
00000350: 1c99 7abd 9e39 98bd db6d 043e 6822 0dbe
00000360: dd8f 8abd d970 6a3d 0bf2 69be 8655 733d
00000370: 8a14 b63d 3043 f63d 1234 cabd 3550 84bd
00000380: 400e 163d b69f ed3d c653 513c 6b78 83bd
00000390: 8216 073d 9567 1a3d 81b8 d43d 8a7c 833d
000003a0: bff1 b6bd 3f58 c7bd f164 35be 40f6 35be
000003b0: fa2e 43be 4b86 563e 8d5a dfba 7e31 f3bd
000003c0: 1c0d 683e e6ab 093e 935a 173e f5d4 82be
000003d0: 7b85 383d 1178 eb3c dade 2b3e 0512 a9bd
000003e0: cb74 8f3c e9b9 14be d3ca 01be ace9 c3bb
000003f0: a4ec afbc 1f22 893d e4e2 a8bd 584b 59be

lstm.weight_ih_l1 f4 [256, 64]
-0.3010239 0.0033642042 0.0068520927 -0.038274467 -0.16258557 -0.050693307 -0.13818075 -0.061952796
0.013640379 0.12202926 -0.12778454 0.15888569 0.0043781507 0.16415869 -0.04921323 -0.018798526
0.1887248 -0.027109949 0.06654199 -0.018535139 -0.12397196 0.15034153 0.19447464 -0.06254391
0.08927686 -0.17337815 -0.058311038 -0.0036133889 0.13357984 0.016293978 -0.12274885 -0.18502367
0.0977561 -0.0049157375 -0.16929024 -0.17021096 -0.040146034 0.0031129317 0.07309384 0.12579823
0.12722673 -0.18573856 0.0046558464 0.109183915 0.03899912 -0.18300048 0.04932989 0.00840361
0.05510618 0.19217251 0.13065886 0.28120402 0.020239992 -0.021030799 0.19408381 -0.1351618
0.17185165 -0.0696972 0.090630926 0.047540296 0.033427868 0.1989932 0.14247823 -0.16471688
-0.049441267 0.086398415 -0.09513311 -0.019706937 -0.15738624 -0.06346646 -0.090054065 -0.007995822
0.04569685 0.027376942 0.03647335 -0.06391955 -0.029640377 -0.022495916 0.09305514 -0.067763135
-0.040629648 -0.13911806 0.010209447 0.06832446 0.0017956375 -0.1060424 0.18951812 0.05493459
0.09307423 0.044182938 0.07212336 -0.048976377 0.11786302 -0.12303818 0.028376909 -0.0027980693
-0.08818635 0.011346545 -0.029505923 0.040954575 0.07428808 -0.07730943 0.0471427 0.0047267573
0.15776794 -0.220288 -0.02408324 -0.08346255 -0.009079631 -0.07824996 0.05849782 0.18603139
0.11373556 0.078883484 0.15446405 0.11264731 -0.071891576 0.09488505 -0.030305129 -0.16942313
0.04956505 -0.018835213 0.14182386 -0.06779207 -0.19607356 0.14882198 0.09073811 -0.027262025
-0.4483531 -0.4072036 -0.41262782 -0.12314459 -0.24858525 -0.0015081469 -0.16143647 0.021909807
-0.3094242 -0.04077639 -0.055610295 0.08312898 -0.28216404 0.07283932 0.058372032 0.22826098
0.29035932 0.117832206 -0.14164673 0.111979246 0.36029598 -0.23462284 -0.28280526 0.20921862
-0.1594342 0.031913605 -0.26211256 0.16956936 0.09422688 -0.139264 0.019239217 -0.4275408
0.056062143 -0.22451876 0.7695147 0.019869143 -0.2977809 -0.08071565 0.09306368 0.07487848
-0.08076953 -0.28492808 -0.3342362 0.06794018 -0.23287913 -0.5279393 -0.5022793 0.08296253
-0.26690945 -0.11460644 -0.190187 0.25284556 0.032164652 -0.12697592 0.0024890825 -0.23044458
-0.42354372 -0.06334022 0.13971423 0.29355073 -0.18396574 -0.029953687 0.3850883 -0.522255
-0.28689882 -0.61670476 -0.07656063 0.072379634 -0.37474716 -0.22082141 0.010528612 -0.041538853
0.13787387 -0.017950946 -0.033401776 -0.01203949 -0.14928319 -0.081872135 0.1734649 -0.15835881
0.19524634 -0.15364528 0.03806951 -0.016274204 0.037327044 -0.20006421 0.061436705 0.10942063
0.0008873518 0.00727151 0.23655285 0.11052489 0.42395216 -0.11550255 -0.025680616 -0.14004833
-0.11106773 0.076852866 0.087965086 0.19413114 0.028921617 -0.045971625 0.0021509922 -0.023646137
-0.059709713 0.28726634 -0.1687628 -0.15501826 -0.35608953 -0.14703429 -0.14276272 -0.030753262
-0.17981043 -0.19149831 0.021231081 0.085439794 -0.10397767 -0.029099239 0.34048423 -0.33317915
0.38523284 -0.09529596 0.026859162 0.5745676 -0.25400522 -0.27299643 -0.22295374 -0.029315704
00000000: ce1f 9abe fb79 5c3b 8587 e03b b0c5 1cbd
00000010: d57c 26be c9a3 4fbd 417f 0dbe 37c2 7dbd
00000020: e57b 5f3c 7aea f93d f3d9 02be eeb2 223e
00000030: 9776 8f3b 3719 283e d093 49bd 5eff 99bc
00000040: 1341 413e af15 debc 2b47 883d 01d7 97bc
00000050: 03e5 fdbd 21f3 193e 5c24 473e 0617 80bd
00000060: c9d6 b63d 0b8a 31be 8ed7 6ebd 9bce 6cbb
00000070: 27c9 083e f37a 853c c063 fbbd d876 3dbe
00000080: 5a34 c83d 3214 a1bb 6c5a 2dbe c84b 2ebe
00000090: 2b70 24bd 5402 4c3b 39b2 953d 40d1 003e
000000a0: b947 023e 4032 3ebe 1290 983b d19b df3d
000000b0: 8bbd 1f3d 7a64 3bbe 240e 4a3d 4caf 093c
000000c0: 05b7 613d dfc8 443e 70cb 053e f9f9 8f3e
000000d0: 57ce a53c c848 acbc e8bd 463e db67 0abe
000000e0: e1f9 2f3e 68bd 8ebd b59c b93d 9db9 423d
000000f0: a9eb 083d e0c4 4b3e d0e5 113e 8bab 28be
00000100: ed82 4abd a7f1 b03d 26d5 c2bd 7170 a1bc
00000110: dc29 21be b4fa 81bd 446e b8bd e800 03bc
00000120: 9f2c 3b3d 9c45 e03c 1465 153d 41e8 82bd
00000130: 60d0 f2bc 5b49 b8bc b193 be3d 66c7 8abd
00000140: 466b 26bd f774 0ebe 8645 273c b2ed 8b3d
00000150: 995b eb3a c22c d9bd 0a11 423e 1803 613d
00000160: b49d be3d 2bf9 343d 6ab5 933d 749b 48bd
00000170: 2b62 f13d 71fb fbbd b176 e83c d05f 37bb
00000180: 0c9b b4bd dce6 393c 68b6 f1bc fcbf 273d
00000190: 5924 983d 6854 9ebd b418 413d eae2 9a3b
000001a0: eb8d 213e 2d93 61be 374a c5bc 6aee aabd
000001b0: bcc2 14bc 8441 a0bd 699b 6f3d 037f 3e3e
000001c0: 30ee e83d aa8d a13d d32b 1e3e a2b3 e63d
000001d0: e43b 93bd 1853 c23d 7642 f8bc 427d 2dbe
000001e0: b904 4b3d 4e4c 9abc 463a 113e 92d6 8abd
000001f0: 82c7 48be ca64 183e e7d4 b93d 9c54 dfbc
00000200: 8a8e e5be fe7c d0be f443 d3be 3b33 fcbd
00000210: 228d 7ebe 03ad c5ba 9a4f 25be 327c b33c
00000220: d96c 9ebe 2505 27bd 9fc7 63bd 873f aa3d
00000230: ce77 90be c82c 953d 8317 6f3d 3fbd 693e
00000240: faa9 943e 0352 f13d d70b 11be 6055 e53d
00000250: b778 b83e f840 70be dacb 90be 683d 563e
00000260: b842 23be d7b7 023d 9e33 86be 97a3 2d3e
00000270: 06fa c03d 399b 0ebe 909b 9d3c a1e6 dabe
00000280: 6ba1 653d 3fe8 65be eafe 443f 9dc4 a23c
00000290: bd76 98be 3f4e a5bd 2c98 be3d e359 993d
000002a0: 7f6a a5bd 18e2 91be 0221 abbe 3924 8b3d
000002b0: de77 6ebe 0827 07bf 6095 00bf 42e8 a93d
000002c0: 5ba8 88be c8b6 eabd 62c0 42be f974 813e
000002d0: 15bf 033d fa05 02be e01f 233b aaf9 6bbe
000002e0: b9da d8be 84b8 81bd 3f11 0f3e 484c 963e
000002f0: 8461 3cbe 6f61 f5bc 4b2a c53e 81b2 05bf
00000300: 67e4 92be 5de0 1dbf d2cb 9cbd c63b 943d
00000310: dcde bfbe 021f 62be 3380 2c3c a524 2abd
00000320: cf2e 0d3e dd0d 93bc 4dd0 08bd 4841 45bc
00000330: b1dd 18be 94ac a7bd c8a0 313e d028 22be
00000340: a8ee 473e 3055 1dbe c6ee 1b3d 7b51 85bc
00000350: 3ee4 183d a2dd 4cbe 0ea5 7b3d ec17 e03d
00000360: 2c9d 683a d945 ee3b e93a 723e e05a e23d
00000370: 4210 d93e 9a8c ecbd 2860 d2bc d468 0fbe
00000380: 7a77 e3bd 0965 9d3d 0a27 b43d 50ca 463e
00000390: 07ed ec3c be4c 3cbd a9f7 0c3b 8bb5 c1bc
000003a0: 2c92 74bd 9314 933e 28d0 2cbe 1bbd 1ebe
000003b0: 5e51 b6be 2890 16be 6430 12be 44ee fbbc
000003c0: 3a20 38be 2218 44be ceec ad3c 0ffb ae3d
000003d0: 3ff2 d4bd 8761 eebc f353 ae3e 7596 aabe
000003e0: 3d3d c53e 872a c3bd bf07 dc3c dd16 133f
000003f0: f90c 82be 30c6 8bbe fc4d 64be 7d27 f0bc

lstm.weight_hh_l1 f4 [256, 64]
0.09023097 0.010371071 0.06510689 0.094486386 -0.02298354 0.03502705 0.027915085 -0.105063654
-0.041632593 0.021350067 -0.09158428 -0.109572634 -0.16509363 0.061899994 -0.03564013 -0.1285393
-0.1750035 -0.14013828 -0.06574725 -0.07330984 -0.14912476 -0.050474267 0.020205664 0.036127478
0.015631126 0.00605354 0.09892696 -0.085853904 -0.064219005 0.20319928 -0.08811968 0.13554414
0.025431203 0.04130139 -0.18432015 -0.082234986 -0.010316969 0.037289698 0.16608405 -0.12373046
0.12650679 0.15669899 0.059395608 -0.19920534 0.11764092 0.21139473 0.10533962 -0.14281146
0.051898908 0.012430032 -0.0011184448 -0.025294868 -0.0707518 -0.15453811 -0.09056287 0.054666903
-0.043100778 -0.13883987 0.08523137 -0.003756942 -0.14817221 -0.11689681 0.072938114 0.110973604
0.12190809 0.04867681 0.0649477 0.083374925 -0.16033821 0.17281641 0.15133439 -0.0738511
0.16803066 -0.063334346 -0.09087109 -0.11277162 -0.22574887 -0.1870733 -0.18682921 -0.09166774
0.0017083618 0.046207618 -0.09050033 -0.16327627 -0.17368093 -0.08399862 0.0893037 -0.08553962
-0.028541405 -0.024137765 0.031268645 -0.09952009 -0.0005768455 0.1269637 -0.090448424 0.06919427
-0.08678275 -0.05430102 -0.21031553 0.13568524 -0.14565039 -0.0468241 0.017271655 0.009519477
0.1334297 0.024070363 0.013697247 0.021324655 0.112813324 0.06878169 -0.06258212 -0.16965996
-0.062284693 0.047071736 -0.031996943 -0.077810474 -0.18580553 0.071747184 -0.028181434 0.18379223
0.010463183 -0.079410434 0.14035882 -0.18880767 -0.032747842 -0.10295348 0.09213114 0.0115154395
0.08989449 -0.1634367 0.266831 -0.06007043 0.27408448 -0.085720964 -0.20345896 0.21227987
-0.27362627 0.27084914 0.15007606 -0.024048945 0.2932297 0.44441918 0.15810397 0.23014568
0.20699112 -0.08612214 0.13505718 0.00049920176 0.22803636 0.36191902 0.24130166 0.17803265
0.08536863 0.15891847 -0.15646645 0.07976833 0.17475812 -0.04787001 0.2860891 -0.27075934
0.25461394 -0.12281716 0.18689634 -0.34638855 0.19537346 -0.29441765 -0.30143845 -0.10353654
-0.35291636 -0.12474338 -0.23992305 0.2229045 0.28710452 -0.19617055 -0.37490728 0.17949104
-0.063215986 -0.0663386 0.1261808 -0.06551579 0.17327592 0.13804008 -0.18903366 -0.21849805
0.09966843 0.19979735 -0.1720491 0.0755862 0.1768097 0.24512234 -0.09286782 0.20964108
0.010674229 -0.12882805 0.069046326 0.06033268 0.06425681 -0.07482137 -0.120119534 0.035699435
0.07858476 -0.054948907 -0.13782452 -0.047622997 -0.10895187 0.13339621 0.2412583 -0.038157474
0.044552114 0.012771101 0.024134992 -0.016133377 -0.078559436 0.07074894 0.13201874 0.024634266
0.18223485 0.01750771 0.011456941 0.051563784 0.028801821 -0.17350379 -0.046253737 -0.09201448
0.20343694 -0.12369283 0.10884947 -0.3785605 -0.00038159775 0.02962712 -0.025544357 -0.04679739
-0.19456755 -0.1944101 0.17809643 0.15449274 0.16863264 -0.16505007 -0.16222446 0.104074515
0.19028331 -0.2052949 0.02032405 0.2155674 -0.02321226 -0.16062191 -0.27954054 -0.17443268
0.09337647 -0.23513539 -0.18159036 0.15430231 0.05659499 0.116841175 -0.025228925 0.33415526
00000000: 04cb b83d 6deb 293c c356 853d 1482 c13d
00000010: fa47 bcbc 8678 0f3d 2dae e43c 9d2b d7bd
00000020: f086 2abd 56e6 ae3c 8a90 bbbd 9e67 e0bd
00000030: 4e0e 29be d98a 7d3d 63fb 11bd ce9f 03be
00000040: 1e34 33be 6980 0fbe 7fa6 86bd 7823 96bd
00000050: 29b4 18be 1bbe 4ebd 5986 a53c 68fa 133d
00000060: d90c 803c c65c c63b 389a ca3d 2cd4 afbd
00000070: 4185 83bd 7913 503e 1778 b4bd 15cc 0a3e
00000080: 1955 d03c a52b 293d 6cbe 3cbe d16a a8bd
00000090: 8108 29bc 15bd 183d f011 2a3e 6566 fdbd
000000a0: ff8a 013e b375 203e cf48 733d 7cfc 4bbe
000000b0: b9ed f03d dc77 583e 4cbc d73d 2b3d 12be
000000c0: f393 543d 55a7 4b3c c898 92ba 2f37 cfbc
000000d0: 52e6 90bd 3d3f 1ebe 0779 b9bd 67ea 5f3d
000000e0: 718a 30bd 0a2c 0ebe c98d ae3d 0737 76bb
000000f0: 75ba 17be 9867 efbd 9460 953d 2146 e33d
00000100: f3aa f93d 5661 473d 4d03 853d 79c0 aa3d
00000110: b32f 24be c9f6 303e 67f7 1a3e 3f3f 97bd
00000120: 3b10 2c3e 70b5 81bd 9f1a babd cff4 e6bd
00000130: b62a 67be 2590 3fbe 2850 3fbe 4cbc bbbd
00000140: 1ceb df3a 3344 3d3d 3d58 b9bd e531 27be
00000150: 6ad9 31be 7807 acbd dce4 b63d 652f afbd
00000160: aacf e9bc 90bc c5bc 8d13 003d 30d1 cbbd
00000170: 7237 17ba c602 023e 063d b9bd bab5 8d3d
00000180: 28bb b1bd bf6a 5ebd f45c 57be 12f1 0a3e
00000190: 6025 15be a1ca 3fbd 497d 8d3c 95f7 1b3c
000001a0: cca1 083e 362f c53c 6b6a 603c 0bb1 ae3c
000001b0: ac0a e73d 6add 8c3d 0e2b 80bd 57bb 2dbe
000001c0: 3c1e 7fbd 4bce 403d 3a0f 03bd 195b 9fbd
000001d0: ce43 3ebe 30f0 923d c0dc e6bc 0834 3c3e
000001e0: c56d 2b3c f0a1 a2bd 39ba 0f3e cc56 41be
000001f0: 9a22 06bd 46d9 d2bd 40af bc3d 41ab 3c3c
00000200: 9a1a b83d f35b 27be 139e 883e 690c 76bd
00000210: cd54 8c3e 798e afbd 8c57 50be e55f 593e
00000220: be18 8cbe bdac 8a3e 8aad 193e 4b02 c5bc
00000230: 3422 963e e98a e33e 02e6 213e 4fab 6b3e
00000240: 7bf5 533e ce60 b0bd 6e4c 0a3e dddc 023a
00000250: 5d82 693e 734d b93e c817 773e 314e 363e
00000260: c0d5 ae3d 86bb 223e be38 20be 945d a33d
00000270: cbf3 323e 5813 44bd 457a 923e f8a0 8abe
00000280: c25c 823e 9087 fbbd c161 3f3e d759 b1be
00000290: fb0f 483e e9bd 96be 2456 9abe f70a d4bd
000002a0: 74b1 b4be 7579 ffbd 63ae 75be 1441 643e
000002b0: 5dff 923e efe0 48be d9f3 bfbe 80cc 373e
000002c0: 6277 81bd 88dc 87bd 8a35 013e 242d 86bd
000002d0: 3e6f 313e 615a 0d3e 0a92 41be f4bd 5fbe
000002e0: f61e cc3d ad97 4c3e a42d 30be f0cc 9a3d
000002f0: 9a0d 353e 5a01 7b3e 7c31 bebd 27ac 563e
00000300: f6e2 2e3c 80eb 03be 2968 8d3d 661f 773d
00000310: 1399 833d f23b 99bd 3b01 f6bd 9239 123d
00000320: 0cf1 a03d 1b12 61bd df21 0dbe 5510 43bd
00000330: 2822 dfbd 0499 083e 6a0c 773e 034b 1cbd
00000340: 477c 363d e13d 513c bfb6 c53c 252a 84bc
00000350: c5e3 a0bd d2e4 903d ec2f 073e cdcd c93c
00000360: c69b 3a3e 546c 8f3c e5b5 3b3c 8c34 533d
00000370: ccf1 eb3c faaa 31be 8f74 3dbd 1672 bcbd
00000380: c651 503e ab52 fdbd 79ec de3d afd2 c1be
00000390: 2f11 c8b9 93b4 f23c 6642 d1bc 9fae 3fbd
000003a0: b73c 47be 7113 47be e95e 363e 5833 1e3e
000003b0: 09ae 2c3e e302 29be 2b1e 26be 0525 d53d
000003c0: a1d9 423e d438 52be 9f7e a63c b3bd 5c3e
000003d0: a327 bebc 127a 24be f01f 8fbe 7b9e 32be
000003e0: 2a3c bf3d 55c7 70be d3f2 39be 6d01 1e3e
000003f0: 26d0 673d 6d4a ef3d e4ac cebc 6616 ab3e

lstm.bias_ih_l1 f4 [256]
0.12564906 0.1932251 -0.14163831 -0.052000925 0.055971965 0.09353952 -0.09173869 0.105636865
-0.02241655 0.036161933 -0.18732859 -0.09664027 -0.06708621 0.090836585 0.06284873 0.039347734
0.16493386 -0.0058225663 0.008687616 -0.17119564 -0.0760223 -0.097917505 -0.09908241 -0.09549567
-0.06246174 -0.05659995 0.117230475 0.047146734 -0.13361782 -0.13950036 0.14030686 -0.11348554
-0.23996079 -0.2301428 0.035562433 0.019342639 0.072367564 0.071342416 -0.16398618 -0.12118116
0.1777163 0.16558905 -0.053997118 0.02063603 -0.2779607 0.024482109 0.01872119 0.082067624
-0.044199023 0.14711651 -0.027747687 0.19328336 0.011162895 -0.019896487 -0.12929618 -0.077692725
-0.17572586 0.05293591 -0.032429922 -0.06777553 0.098552905 0.03377 0.15398277 0.06247096
-0.0027061075 -0.007089213 -0.115879476 -0.04407204 0.2014448 0.18491478 -0.14135249 0.14008008
0.003694643 -0.028159725 0.082164116 0.0048456495 0.19427253 0.16278662 0.15411638 0.01904647
0.037983116 -0.13647 -0.12565288 -0.13498442 0.07875538 0.019928314 -0.1744172 -0.01825052
-0.026857214 -0.06735109 0.04010974 -0.07751993 -0.06156883 -0.048163835 0.15831983 0.02790136
0.0535727 0.045646507 0.051576547 0.1389649 0.093638755 0.036035743 -0.08622375 -0.16582812
0.16153482 -0.05051954 0.0076963594 0.13558441 -0.092231855 0.1235682 0.06708106 -0.046686996
-0.0136552565 0.20799917 0.12425748 0.06562291 0.08457997 0.11244386 -0.08366055 0.12581345
-0.028303368 0.042287532 -0.08420297 0.0046733925 -0.00783523 0.11997011 0.04858877 0.032233357
0.008917644 0.05847617 -0.03854067 -0.011317838 -0.19658417 0.038999613 0.07995595 -0.124379456
-0.004656354 -0.1435778 -0.100032546 -0.08787836 -0.13295269 -0.19049269 -0.2004457 -0.062529214
-0.15570937 -0.095767625 -0.08363966 -0.07500236 -0.09478582 -0.18915915 0.120808676 -0.044879243
0.060435314 0.012921103 0.0617419 0.10876678 -0.0445379 -0.039903976 -0.045513067 0.07046637
0.033076473 -0.045071494 -0.19227053 0.12924148 -0.02428791 0.13085686 0.14842583 0.07390052
0.032787904 0.185699 0.18107557 -0.006027899 0.052696124 0.11525339 0.12799788 -0.0989715
-0.0029031825 -0.108072646 -0.13061814 0.09082869 -0.1510761 -0.12538798 -0.04976414 -0.033770565
0.04013876 -0.10906886 0.09692628 -0.08578259 -0.11830006 -0.17482165 -0.005536421 -0.09632796
-0.08101374 0.016971326 0.01886214 -0.12360975 0.108863406 0.01434775 0.11351303 0.039536495
-0.066930026 -0.07639199 0.020986652 -0.024309883 -0.12289565 0.25572503 0.12071024 -0.043866705
-0.019594243 0.03387364 0.038416345 0.0037585034 -0.1091125 -0.015179268 0.032069072 0.059738934
0.094015345 0.24771407 0.07624116 -0.030390956 -0.061726633 0.042494223 -0.1438324 0.14977124
0.1326236 0.09048677 -0.039345346 0.32459608 -0.15014385 -0.025936931 0.039872836 0.16132861
-0.036747973 0.08268585 -0.046925355 0.041948345 0.04909618 0.051296484 0.051043928 -0.03357342
-0.16787976 0.2062834 -0.0011576947 -0.022160858 0.16155945 -0.16776358 0.04738473 -0.004614926
0.09901452 0.16778111 0.15002897 0.043277662 0.07842445 -0.090513304 -0.011243318 0.25501785
00000000: 26aa 003e cddc 453e a209 11be ecfe 54bd
00000010: dc42 653d a691 bf3d 7fe1 bbbd 2458 d83d
00000020: eaa2 b7bc 891e 143d 11d3 3fbe 55eb c5bd
00000030: 7f64 89bd 8808 ba3d d6b6 803d 172b 213d
00000040: 6ce4 283e 3acb bebb 8156 0e3c e94d 2fbe
00000050: 94b1 9bbd f988 c8bd b8eb cabd 3c93 c3bd
00000060: e2d7 7fbd 59d5 67bd 8816 f03d ef1c 413d
00000070: 1cd3 08be 2fd9 0ebe 9aac 0f3e 1b6b e8bd
00000080: 48b8 75be 8eaa 6bbe eaa9 113d 7474 9e3c
00000090: 7235 943d f91b 923d feeb 27be d42d f8bd
000000a0: 43fb 353e 2d90 293e 152c 5dbd e40c a93c
000000b0: dd50 8ebe b48e c83c 2e5d 993c 1213 a83d
000000c0: 090a 35bd b6a5 163e 1e4f e3bc 13ec 453e
000000d0: 93e4 363c f5fd a2bc 3866 04be 5d1d 9fbd
000000e0: 7bf1 33be 53d3 583d 3dd5 04bd e6cd 8abd
000000f0: 1bd6 c93d 6952 0a3d a9ad 1d3e 8de1 7f3d
00000100: f358 31bb a14c e8bb 3852 edbd e284 34bd
00000110: 8c47 4e3e 4d5a 3d3e b5be 10be 2771 0f3e
00000120: d321 723b 39af e6bc a945 a83d 41c8 9e3b
00000130: 61ef 463e 89b1 263e afd0 1d3e 5807 9c3c
00000140: 2f94 1b3d cbbe 0bbe 26ab 00be 5b39 0abe
00000150: 804a a13d b440 a33c 6c9a 32be 1d82 95bc
00000160: a903 dcbc 5eef 89bd 1c4a 243d c5c2 9ebd
00000170: 992f 7cbd 7147 45bd 981e 223e 6591 e43c
00000180: 0c6f 5b3d d5f7 3a3d ee41 533d d14c 0e3e
00000190: adc5 bf3d 379a 133d 1496 b0bd d9ce 29be
000001a0: 6269 253e 94ed 4ebd be31 fc3b a4d6 0a3e
000001b0: 0ee4 bcbd 5311 fd3d cb61 893d dd3a 3fbd
000001c0: 4cba 5fbc bcfd 543e b57a fe3d 4e65 863d
000001d0: 4338 ad3d f748 e63d 3956 abbd 3ed5 003e
000001e0: 77dc e7bc b135 2d3d 9b72 acbd 4223 993b
000001f0: 565f 00bc e4b2 f53d 0505 473d 2007 043d
00000200: 4f1b 123c b584 6f3d d2dc 1dbd 746e 39bc
00000210: 5c4d 49be 0fbe 1f3d f2bf a33d a8ba febd
00000220: 5494 98bb 0f06 13be dddd ccbd 92f9 b3bd
00000230: c024 08be 8410 43be a341 4dbe 510f 80bd
00000240: 4772 1fbe d121 c4bd 454b abbd d69a 99bd
00000250: 111f c2bd f0b2 41be 8a6a f73d 4cd3 37bd
00000260: 058b 773d 09b3 533c 13e5 7c3d 1ec1 de3d
00000270: 5f6d 36bd 5a72 23bd e96b 3abd ac50 903d
00000280: 327b 073d e39c 38bd 91e2 44be e157 043e
00000290: 70f7 c6bc 57ff 053e f1fc 173e 2859 973d
000002a0: 9c4c 063d e127 3e3e e06b 393e af85 c5bb
000002b0: e4d7 573d f809 ec3d e011 033e 92b1 cabd
000002c0: 5243 3ebb 3155 ddbd c3c0 05be 6404 ba3d
000002d0: b1b3 1abe b565 00be 7cd5 4bbd 0153 0abd
000002e0: 8a68 243d 7f5f dfbd 4981 c63d c8ae afbd
000002f0: 4d47 f2bd 7204 33be de6a b5bb 9847 c5bd
00000300: 88ea a5bd 7307 8b3c c684 9a3c 1c27 fdbd
00000310: c7f3 de3d d312 6b3c 8579 e83d 05f1 213d
00000320: 9c12 89bd 6773 9cbd 33ec ab3c 8525 c7bc
00000330: b7b0 fbbd 64ee 823e ee36 f73d 93ad 33bd
00000340: 1b84 a0bc 16bf 0a3d 755a 1d3d 3951 763b
00000350: 6076 dfbd 77b2 78bc dc5a 033d d0b0 743d
00000360: 1e8b c03d c2a8 7d3e 5324 9c3d 74f6 f8bc
00000370: 11d5 7cbd 6c0e 2e3d cd48 13be a25d 193e
00000380: 7bce 073e 2151 b93d 9628 21bd 7531 a63e
00000390: 4fbf 19be b079 d4bc b351 233d 5433 253e
000003a0: 0b85 16bd 3357 a93d cd34 40bd 07d2 2b3d
000003b0: 1319 493d 431c 523d 7013 513d 4884 09bd
000003c0: ace8 2bbe f53b 533e cabd 97ba b08a b5bc
000003d0: d76f 253e 37ca 2bbe 7e16 423d ce38 97bb
000003e0: 20c8 ca3d d0ce 2b3e 32a1 193e eb43 313d
000003f0: ff9c a03d 0a5f b9bd e535 38bc b391 823e

lstm.bias_hh_l1 f4 [256]
0.16252466 0.026175518 -0.21587607 -0.012050051 0.04506714 0.122493446 0.015707275 -0.04618806
0.11375784 0.03549233 -0.12556392 -0.115121774 -0.09699186 0.07949689 0.03500204 0.11330962
-0.053591065 -0.18058331 0.055229183 -0.16907752 -0.0014789365 0.0008267402 -0.16878782 -0.20979056
0.042131547 -0.036465555 0.07016015 -0.08528795 -0.1467885 -0.04592018 0.103036575 -0.07915936
-0.018805664 -0.04899689 0.026766019 0.07832203 0.15875916 0.07045545 -0.0744711 -0.13297679
-0.024256375 0.1255473 -0.022523876 0.093016714 -0.29820442 -0.039685886 0.14909303 0.059623707
-0.064695194 0.11672701 0.0029078491 0.11849722 0.15771624 -0.20234416 -0.20710272 0.09645137
0.007876925 0.060977437 0.022172282 0.09304864 0.046918463 0.1704606 0.14890319 0.019221777
0.11355738 0.013639957 -0.12279422 0.03353632 0.066923074 -0.032621197 -0.09304488 -0.036190096
-0.05985844 -0.0043081604 -0.022255225 -0.07508286 0.17485383 0.067831725 0.02118234 0.16399916
0.17209265 0.05819633 -0.13263604 -0.13705258 -0.0853066 0.058306597 -0.09900053 -0.02744388
0.12742114 -0.09827379 0.07257655 0.12885171 -0.033065893 -0.026066436 0.17142189 -0.041184176
-0.14331132 -0.14296335 0.009706455 0.09327215 0.004747381 -0.077913836 0.032788888 -0.10298597
0.18116812 0.102301955 0.02181936 0.053007722 0.002366127 0.030697042 0.15655166 0.16981405
-0.036651153 0.16387989 0.054332457 0.06943243 0.18521886 0.06498124 -0.12948138 0.062235624
0.107977554 0.0526785 0.10588612 0.028428005 -0.052925315 0.16108403 0.13027686 0.09640613
0.018218195 0.1001238 -0.03497303 0.11551038 -0.10136103 0.13689668 0.024489108 0.05352927
0.16345482 -0.0711678 0.033447824 -0.11231089 -0.08009699 -0.20219779 -0.12704453 -0.029269565
-0.1299232 -0.13031106 -0.17983913 0.07762566 -0.14023751 -0.09983313 -0.00019539228 -0.005933886
-0.022759918 -0.042643756 0.18278907 0.037142817 -0.03609478 -0.05581269 -0.15636536 0.09150202
-0.0093360245 -0.17790751 -0.17752779 0.1389762 -0.064422816 0.18234867 0.16040751 0.03708596
0.14891063 0.10429792 0.055887897 -0.022125032 -0.015087763 0.04856052 0.016834859 -0.0058938363
0.045409534 0.023620516 -0.15951031 0.081971794 0.049611386 0.08086338 -0.008751603 0.17618583
0.062806055 -0.042318776 0.17442207 0.0036357804 -0.13741514 -0.07618405 0.10005322 -0.116659746
-0.2544289 0.16578692 0.025945762 -0.13004522 0.064438015 0.08937742 0.052629765 0.11919414
-0.12982225 -0.10827844 -0.070732504 0.04592565 0.0017007864 0.11224598 -0.023621954 -0.13159902
0.10739002 0.105038345 0.077761106 -0.07771363 -0.048189193 0.10042386 0.16987209 -0.020089889
0.0745737 0.14390963 0.0628462 -0.09972606 0.06283148 0.07819385 -0.011379103 -0.005016039
0.072531804 0.13608818 0.15444249 0.3611302 -0.0060327123 -0.0037210926 0.04897924 0.13014475
0.07573765 -0.04893684 -0.19425265 0.08024605 -0.042776775 0.025650393 -0.056320466 0.11931581
-0.11328042 0.2298273 -0.0610351 0.1772533 0.087020025 -0.05789572 -0.032170746 0.16147703
0.09746504 0.09496972 0.13031836 0.014648912 -0.0033877424 -0.052015986 0.12140895 0.43324322
00000000: dd6c 263e 0a6e d63c 9e0e 5dbe 946d 45bc
00000010: 5298 383d d8dd fa3d 8bac 803c b12f 3dbd
00000020: dff9 e83d 6860 113d d493 00be f7c4 ebbd
00000030: aba3 c6bd 44cf a23d 4d5e 0f3d e00e e83d
00000040: 4e82 5bbd d5ea 38be ff37 623d a822 2dbe
00000050: e0d8 c1ba 98b9 583a b7d6 2cbe 56d3 56be
00000060: 2192 2c3d e85c 15bd 20b0 8f3d 73ab aebd
00000070: b94f 16be cc16 3cbd d704 d33d 4d1e a2bd
00000080: 560e 9abc f7b0 48bd 6944 db3c 4d67 a03d
00000090: c391 223e f24a 903d 4e84 98bd 112b 08be
000000a0: 4eb5 c6bc 798f 003e fe83 b8bc 8c7f be3d
000000b0: 40ae 98be ab8d 22bd d8ab 183e fd37 743d
000000c0: ea7e 84bd 920e ef3d 9d91 3e3b acae f23d
000000d0: 5e80 213e 4f33 4fbe bc12 54be 4c88 c53d
000000e0: 380e 013c 7ac3 793d a5a2 b53c 4990 be3d
000000f0: 932d 403d 398d 2e3e 147a 183e fd76 9d3c
00000100: c690 e83d 207a 5f3c 897b fbbd 615d 093d
00000110: f70e 893d ce9d 05bd 508e bebd 113c 14bd
00000120: 202e 75bd 782b 8dbb 9750 b6bc 0bc5 99bd
00000130: e20c 333e 5ceb 8a3d 9686 ad3c 65ef 273e
00000140: 0e39 303e 465f 6e3d bed1 07be 8357 0cbe
00000150: 3ab5 aebd e6d2 6e3d cac0 cabd fdd1 e0bc
00000160: b07a 023e c543 c9bd 04a3 943d b4f1 033e
00000170: 1a70 07bd 4789 d5bc 3889 2f3e bdb0 28bd
00000180: 34c0 12be fc64 12be d307 1f3c 7805 bf3d
00000190: eb8f 9b3b 4a91 9fbd a44d 063d 4fea d2bd
000001a0: 2384 393e b083 d13d 84be b23c a01e 593d
000001b0: 0611 1b3b 5d78 fb3c 144f 203e bce3 2d3e
000001c0: 851f 16bd 21d0 273e b68b 5e3d 9732 8e3d
000001d0: 03aa 3d3e e214 853d c496 04be c8ea 7e3d
000001e0: 5623 dd3d 69c5 573d d2da d83d d9e1 e83c
000001f0: 37c8 58bd 36f3 243e 4c67 053e 9470 c53d
00000200: 533e 953c b50d cd3d e13f 0fbd b590 ec3d
00000210: 5f96 cfbd a52e 0c3e 629d c83c 8241 5b3d
00000220: b360 273e 6cc0 91bd 9600 093d 4003 e6bd
00000230: e409 a4bd f00c 4fbe f617 02be bac6 efbc
00000240: 960a 05be 4370 05be c027 38be 34fa 9e3d
00000250: 6c9a 0fbe 5075 ccbd 37e2 4cb9 0b71 c2bb
00000260: 0273 babc 38ab 2ebd 0f2d 3b3e 1123 183d
00000270: 1fd8 13bd d99b 64bd 3e1e 20be 6965 bb3d
00000280: 20f6 18bc 632d 36be d8c9 35be c74f 0e3e
00000290: 1cf0 83bd 9cb9 3a3e de41 243e 73e7 173d
000002a0: 077c 183e 269a d53d b5ea 643d 8e3f b5bc
000002b0: aa32 77bc 65e7 463d 42e9 893c 1521 c1bb
000002c0: 59ff 393d d07f c13c ac56 23be d4e0 a73d
000002d0: 4f35 4b3d b39b a53d e262 0fbc 0f6a 343e
000002e0: 76a0 803d 7456 2dbd b39b 323e 4646 6e3b
000002f0: 8eb6 0cbe 6206 9cbd b4e8 cc3d 4eeb eebd
00000300: 8144 82be 0cc4 293e 358c d43c 932a 05be
00000310: 14f8 833d 820b b73d 4f92 573d 0f1c f43d
00000320: 20f0 04be 16c1 ddbd 34dc 90bd 891c 3c3d
00000330: ecec de3a 38e1 e53d d482 c1bc e5c1 06be
00000340: 4cef db3d 581e d73d 3741 9f3d 5328 9fbd
00000350: 0862 45bd 06ab cd3d f3f2 2d3e 8d93 a4bc
00000360: 19ba 983d 0c5d 133e 82b5 803d 2d3d ccbd
00000370: caad 803d 1924 a03d 6b6f 3abc 965d a4bb
00000380: 8e8b 943d b35a 0b3e 2c26 1e3e 0fe6 b83e
00000390: 0fae c5bb 93dd 73bb 759e 483d aa44 053e
000003a0: 571c 9b3d ff71 48bd 2bea 46be 0b58 a43d
000003b0: b336 2fbd c620 d23c 4ab0 66bd d95b f43d
000003c0: 91ff e7bd d957 6b3e f1ff 79bd e481 353e
000003d0: 8e37 b23d 1024 6dbd 79c5 03bd 3c5a 253e
000003e0: c09b c73d 7c7f c23d 2d72 053e fd01 703c
000003f0: e304 5ebb b70e 55bd 41a5 f83d 0ed2 dd3e
